Airline Passenger Satisfaction Classifier/model/AirlinePassengerSatisfaction_ANN_Model.pt (torch, 85546 bytes, 10 tensors)

fc1.weight f4 [124, 19]
000000 09 ca 20 3e b0 61 a4 39 a4 e8 67 40 e0 ea 9a 3f
       0.1570207 0.000313533 3.6235743 1.2102928
000010 31 53 ab bd 38 0d 7a 3e b8 85 0c be 33 b0 cc 3e
       -0.08365477 0.24419105 -0.13722885 0.3997818
000020 65 fd 48 3e 36 ee c6 3e 06 6a 1b 3e 39 31 bb 3e
       0.19627912 0.38853616 0.15177163 0.3656099
000030 68 ff 47 3e 9e 9f 72 3e ec 7f 73 3e 71 89 cd bf
       0.19531024 0.23693702 0.23779267 -1.6057569
000040 75 b6 08 be 90 7a fc 3f 7f 61 e2 bf c0 b5 b6 bd
       -0.13350852 1.9724903 -1.7686003 -0.08921385
000050 da 29 02 bc 24 c8 d4 3f ff 37 29 bf 17 19 47 be
       -0.0079445485 1.6623578 -0.6610107 -0.19443165
000060 f6 a3 4a 3f c6 5b e6 bd 60 78 a7 bd eb 5f b5 3e
       0.79156435 -0.11247973 -0.081772566 0.35424742
000070 7b f6 95 3e fb c6 85 3e 63 eb 56 3f 39 3c 01 3e
       0.29289612 0.26128373 0.8395292 0.1262063
000080 e0 29 a3 3e 8d 9d 6c be a2 38 1b 3e 24 2b 1f c0
       0.31867886 -0.23106976 0.15158322 -2.487008
000090 46 85 ca 3f 42 3f 88 c0 bd bb 54 be 1e 5d e6 3a
       1.5821922 -4.257722 -0.20774741 0.0017575359
0000a0 be 7e 91 3e 23 6d 08 3e 48 b5 f6 be b6 6f 01 c0
       0.2841701 0.13322882 -0.48185182 -2.0224433
0000b0 ba bb 8f bf 0e eb 88 bf 33 e6 db bf ef aa a5 bf
       -1.1229165 -1.0696733 -1.7179626 -1.294279
0000c0 3b d1 89 bf 64 68 c9 bf 32 9e 50 bf a0 34 93 bf
       -1.0766977 -1.5734982 -0.81491387 -1.1500435
0000d0 97 e4 c2 bc 92 66 93 bf 14 e9 57 40 f2 6e bb bf
       -0.02379064 -1.1515677 3.373601 -1.4643233
0000e0 e4 de 6f 40 ee 46 14 bf dd 24 9f 3b c4 2e 7b 3e
       3.7479792 -0.5792073 0.0048566894 0.24529558
0000f0 79 8a 09 3f fc e0 39 bf fc 67 8d bf 54 ad 30 bf
       0.5372692 -0.72608924 -1.1047359 -0.6901448
000100 31 7f 80 bf 18 ca 8f bf 49 2e 42 bf 78 4a 15 bf
       -1.0038816 -1.1233549 -0.75851876 -0.58316755
000110 ae 80 aa bf 3a ce 40 bf 17 72 41 bf bd 91 01 be
       -1.332052 -0.75314677 -0.7556471 -0.12653251
000120 3d c2 44 bf 5c 5a c3 3f 6a b4 12 bf 52 59 f2 3f
       -0.76858884 1.526195 -0.5730654 1.8933508
000130 1e b8 5e 3d 02 47 6a bd 47 0e 40 be 7e d3 dc bd
       0.054374807 -0.057196625 -0.18755446 -0.107825264
000140 79 70 42 3d 73 6f ca 3d 09 0e f2 3d 53 9d 19 bd
       0.047470544 0.098845385 0.11819083 -0.03750355
000150 76 ac 5b be bf 1d 3b 3e a8 ac 82 3c 00 f8 45 be
       -0.21452507 0.18273066 0.01595147 -0.19332886
000160 ac d7 1d be 3a 1d ea bd d5 39 05 bd 5c c6 3c 3e
       -0.15414304 -0.11431356 -0.032525856 0.18435043
000170 8d 21 b3 bd ed 4a a9 3d b0 14 07 be de 49 03 3e
       -0.08746634 0.08266244 -0.13191485 0.12821147
000180 46 c4 9c bd fd 8a 06 bf cf 35 66 3e 28 4e 7d 3d
       -0.07654624 -0.5255583 0.22481464 0.061842114
000190 e3 2f 4d bf c8 44 6b 3e 6f 86 0b bf dc d9 94 be
       -0.80151194 0.22975457 -0.54502004 -0.29072464
0001a0 29 67 2a be 6a ca 28 3e 53 ea 0e be 33 1e 38 3d
       -0.16640915 0.16483465 -0.13956575 0.044950675
0001b0 fb 14 35 be e6 d4 91 be a7 24 7b 3f 79 14 a6 3e
       -0.17683785 -0.2848274 0.981028 0.32437494
0001c0 24 ac 14 c0 74 cd 12 40 0a ab 9b bd cc 1a 57 bb
       -2.3230066 2.2937899 -0.076009825 -0.0032822369
0001d0 6c 79 17 bf 9e cb 35 be 30 dc bf bc 31 71 63 bf
       -0.5916965 -0.17753455 -0.023420423 -0.8884459
0001e0 6b 49 7f be 0f 3f 1c bf 92 4b 04 bf 87 5f a1 be
       -0.2493035 -0.6103372 -0.5167781 -0.31518194
0001f0 b7 e9 53 be f3 eb 3e be 74 e0 64 3d 6c 06 ed be
       -0.20694624 -0.18644695 0.055878118 -0.46293962
000200 6d fc 29 be 7a 90 12 bf a5 7d 88 3f 6e a8 41 bf
       -0.16600199 -0.57251704 1.0663344 -0.7564763
000210 eb 9a f2 3f b6 a7 ae 3d 10 7d b0 bd a1 08 af bf
       1.8953527 0.08528082 -0.08617604 -1.3674508
000220 f7 06 dd bd 9c 3a e4 3e c8 95 a4 be bc 93 e6 3e
       -0.10792344 0.44575965 -0.32145524 0.45034587
000230 5a 45 e0 3d 2f fd 97 bc 48 d2 0e be 59 35 bc 3e
       0.10950728 -0.018553345 -0.13947403 0.3675945
000240 f1 41 e1 bd 76 8a 94 3d 23 d5 26 3e 70 46 61 bd
       -0.109989055 0.07252972 0.16292243 -0.054998815
000250 df 30 c8 3f 4f cd e8 bd 31 bf 12 c0 c9 07 2a 40
       1.5639914 -0.113672845 -2.2929194 2.6567252
000260 24 33 d8 3d 01 11 17 bd 02 90 83 bf c0 b7 f0 3e
       0.10556629 -0.03688145 -1.0278323 0.4701519
000270 1b 81 ab be f1 5b b4 bf 55 36 eb be 9a 03 73 bf
       -0.33496937 -1.4090558 -0.4593989 -0.9492737
000280 1b a2 75 bf 84 37 98 bf b5 0e 2f bf 4a 79 55 bf
       -0.9595048 -1.1891942 -0.68381816 -0.833882
000290 e0 51 16 bf dc 9b 7f bf 09 6b d6 bd 4b 0b 72 bf
       -0.5871868 -0.998472 -0.10469634 -0.9454848
0002a0 0e 61 27 40 e1 57 90 bf 67 48 83 40 18 37 5f bc
       2.6152987 -1.1276819 4.102588 -0.013623975
0002b0 be ee 1e bd b4 7e 37 3e a6 12 3b be 25 9b cf 3d
       -0.0388019 0.17919427 -0.18268833 0.10137013
0002c0 67 58 4c 3c 09 e4 c5 bd a7 7c b5 3d db 8e ab 3d
       0.012472249 -0.09662635 0.08861666 0.08376857
0002d0 28 1f 50 bc 5b 53 f6 bc db b3 66 3d 25 d2 08 bd
       -0.012702741 -0.030069044 0.056323867 -0.033403534
0002e0 1d 96 ef bd 3f 17 84 bd a2 00 13 be 1e b1 24 3e
       -0.11698554 -0.06449746 -0.1435571 0.1608319
0002f0 31 60 d2 3c bf fe 0c bd 8f 09 09 3e 0f b6 90 be
       0.025680633 -0.034422632 0.13382553 -0.282639
000300 20 7c 21 3e ed 2b a2 be 44 f0 37 bd b8 19 c3 3d
       0.15770006 -0.31674138 -0.04490687 0.0952639
000310 60 bf 9b be 98 4c 8c be b0 26 0f 3e 6d 3e 0f 3c
       -0.30419445 -0.27402186 0.13979602 0.008742911
000320 5a 99 e9 3d e2 51 53 be 0e bc d3 3d 82 05 ac 3d
       0.114062026 -0.20636705 0.10338603 0.08399488
000330 4f 43 8b be 59 61 04 bd c3 70 7f bd c6 67 05 3b
       -0.2719979 -0.0323194 -0.062363397 0.0020356043
000340 80 78 b3 bd 30 65 98 bd b1 1f 5a bd 2d d5 26 3e
       -0.08763218 -0.07441175 -0.05325288 0.16292258
000350 5e 7b 1f bd 14 58 db bd f3 5b 49 be 99 15 83 be
       -0.03893601 -0.10710159 -0.19663982 -0.25602415
000360 61 79 ab bd 92 94 1e 3d 6e 10 a7 bd ff 9c 13 3c
       -0.083727606 0.038715906 -0.081574306 0.009009599
000370 e8 87 0a bd ae 26 2a 3e 2a ca 2c 3e fe 7e 62 3c
       -0.033821017 0.16616318 0.16873994 0.013824223
000380 7d ef 83 bd 59 06 c4 bc 03 52 4c 3c 57 71 40 3c
       -0.06442163 -0.023928808 0.012470725 0.011745772
000390 ca 98 37 be 3d 9f 8b 39 31 f1 46 be 2c b9 3b be
       -0.17929378 0.00026630788 -0.19427945 -0.18332356
0003a0 d8 0a 5e 3d 2a 34 6d be 49 5b 55 be ac f0 89 be
       0.05420956 -0.2316443 -0.20835604 -0.2694143
0003b0 67 28 8b be 99 3e d7 bd 3d 77 2c 3d 17 da 68 bd
       -0.27179262 -0.105099864 0.042105902 -0.05684861
0003c0 39 f0 82 3d 38 02 8d be 15 08 8a be fc 6c b6 3e
       0.06393475 -0.27540755 -0.2695929 0.35630023
0003d0 8e 0e dd be 0d 05 93 be 23 25 c9 be ac ae 87 3d
       -0.43175167 -0.2871479 -0.39286146 0.06625113
0003e0 4c c9 92 3c 6a f8 06 c0 93 d1 78 bf 70 f5 d0 bc
       0.017918251 -2.108912 -0.97194785 -0.025507659
0003f0 68 04 e3 3f c0 45 ce 3e d2 91 c0 3e fa 06 1c 3f
       1.773572 0.4028759 0.37611252 0.60948145

fc1.bias f4 [124]
000000 17 4e 74 bf a7 e5 d2 bf 95 78 86 3f 62 3b 32 3f
       -0.95431656 -1.6476334 1.0505549 0.6962186
000010 45 aa 34 3e 31 b6 80 3f de a2 f6 3e 28 30 85 3f
       0.17643078 1.00556 0.48171133 1.0405321
000020 0f 75 65 3f fc db 58 be 8c 60 af bc 73 aa f7 bd
       0.8963174 -0.21177667 -0.021408342 -0.120930575
000030 76 93 a2 3c 7f 57 1d bf 07 45 a5 bf 63 0d 25 3e
       0.019845705 -0.61461633 -1.291169 0.16118388
000040 1a 00 bd be 2e 51 ce bf a1 89 7e be 88 0a 3f 3e
       -0.3691414 -1.6118524 -0.24857189 0.18656361
000050 81 ad cf bd ea 43 51 be 20 0d ee bd f4 fa 88 bd
       -0.10140515 -0.20436063 -0.11623597 -0.066884905
000060 43 9f 9c bc b5 1f c1 bd 3b 08 2b 3e 66 ca 40 3f
       -0.01911891 -0.09429876 0.16702358 0.75308836
000070 d3 1e 90 bd 35 c3 fb bd 21 19 9e 3f 73 29 54 3e
       -0.07037129 -0.12293092 1.2351419 0.20718937
000080 6b 55 ad bc ee 8e 96 3f 8f 5a 18 be dd 8a 47 3e
       -0.021158895 1.1762369 -0.14878295 0.19486566
000090 46 70 05 c0 8b 40 4b 3e 06 a1 8c 3f 27 74 83 bd
       -2.0849776 0.1984884 1.098664 -0.06418639
0000a0 d1 02 88 3f 74 57 00 c0 7a c9 1e 3e ba ea 23 3f
       1.062586 -2.0053377 0.15506545 0.6403004
0000b0 92 2b f2 bf 18 49 58 bf 28 88 6b bf 46 1c 8d 3f
       -1.8919547 -0.8448653 -0.9200463 1.1024253
0000c0 67 8f 7e be a6 9b 56 3e 18 48 20 3e 37 69 a2 bd
       -0.24859391 0.20957813 0.15652502 -0.079302244
0000d0 dc e5 a1 bd 8b 7d f3 bd 69 b8 6d 3f 1a ba 09 bd
       -0.0790517 -0.1188918 0.9285951 -0.033624746
0000e0 13 2f 02 c0 de f3 8e 3f 2c 2c b9 bd 4f 59 e1 3e
       -2.0341232 1.1168172 -0.09041628 0.4401345
0000f0 c8 54 17 be 05 0f 26 3d f6 45 a8 bd 6f 01 91 bf
       -0.14778435 0.040541667 -0.08216469 -1.1328562
000100 0c 62 3a 3f 2e d3 9d 3f c1 33 d4 be 12 82 93 3f
       0.7280586 1.2330072 -0.41445735 1.1524069
000110 2d 51 e8 bd b6 6c 34 be dd 3e a8 bd 79 25 9f be
       -0.11343608 -0.17619595 -0.08215115 -0.31083277
000120 c7 4d d7 bf 8e 7d 00 c0 19 c7 9d bf 91 83 37 be
       -1.6820611 -2.0076632 -1.2326385 -0.17921282
000130 3e 51 46 3d a8 87 9f 3c 05 ae 89 3d 92 15 ce 3f
       0.048417322 0.019473866 0.06722645 1.6100333
000140 e9 70 81 3d 50 e3 d6 bc b8 52 04 c0 30 a5 70 3d
       0.06320364 -0.026231438 -2.0675488 0.058751285
000150 d3 c8 a1 3d 00 38 43 3f a2 60 19 be 9c d1 d5 be
       0.07899632 0.76257324 -0.14978269 -0.41761482
000160 78 73 4d bf 41 c0 e9 bf e6 ab bb 3f ee f5 f1 bd
       -0.80254316 -1.8261796 1.4661834 -0.118144855
000170 43 13 29 3d 8f db 2c be 65 6a d4 bf b1 23 c2 bd
       0.041278135 -0.1688063 -1.6594969 -0.09479464
000180 68 a1 30 3e 2b da fc be 8c 6a 03 40 57 5b 6c 3f
       0.17249072 -0.493852 2.053378 0.92326874
000190 45 61 db 3f d2 41 4d 3f f7 d3 0e 3d a5 64 c1 3f
       1.7139059 0.8017856 0.034870114 1.5108839
0001a0 65 6d 17 be 94 d0 0b 3f 9d 72 82 bd fa aa c1 3d
       -0.14787824 0.5461514 -0.06369517 0.09456439
0001b0 2d b7 0e be d0 6f 93 bf 9b 7f 93 3f 33 ab f2 bc
       -0.13937064 -1.1518497 1.1523317 -0.02962265
0001c0 8f 6e 25 be bd 40 0b 3f e5 bd a7 bf ba 06 a4 bf
       -0.16155456 0.5439566 -1.3104826 -1.2814553
0001d0 ec 84 87 bd 39 6c 32 3f 4d 05 f0 bd a4 4a 0b 3e
       -0.0661715 0.69696385 -0.11719761 0.13602692
0001e0 f3 4a 42 bf 81 7b cf bd 2a da fb 3d fb 90 42 be
       -0.75895613 -0.101309784 0.12297471 -0.19000618

fc2.weight f4 [84, 124]
000000 43 98 8c bc 52 29 3c bd 87 76 9d bd 99 d9 45 bd
       -0.017162448 -0.045937844 -0.07688623 -0.04830322
000010 20 06 b4 3d 0c 02 87 bc 0e 9f 6a 3d 09 cd 75 bd
       0.08790231 -0.016480468 0.057280593 -0.06000999
000020 86 22 22 3d 50 de a8 bd f6 8a 3f 3d 38 46 38 3d
       0.039583705 -0.08245528 0.046763383 0.04498884
000030 e4 1a cb 3b 1d 89 21 be bf 01 4b 3c bb 4b c1 bc
       0.006198274 -0.15774961 0.012390553 -0.023595681
000040 cb 51 20 bc b2 ea 82 bd 6c 6b c6 3d 6b b7 38 bd
       -0.009785126 -0.06392421 0.09688458 -0.045096796
000050 9c 40 cd 3c 2d 04 47 bd 71 9b 07 3d 7d 2c 3e bd
       0.025055222 -0.048587967 0.033107225 -0.046429146
000060 67 82 69 bd 31 59 19 bd c9 aa 8d bd 32 57 b3 bd
       -0.057009127 -0.037438575 -0.0691734 -0.087568656
000070 2f 33 24 bb 12 fb b5 bc 74 38 dd bd 4e 12 4b bc
       -0.0025054922 -0.022214446 -0.10801783 -0.012394501
000080 ca 93 af bd e5 63 fc 3c 75 52 3f 3d 5f 2b fb bc
       -0.085731104 0.030809352 0.046709497 -0.03066033
000090 ac bb ab bd f4 45 db bc 08 67 e4 bd d6 29 60 3d
       -0.08385405 -0.026766755 -0.11152464 0.054727398
0000a0 48 9d 0a bc 2d 20 01 be b0 85 6a 3d 73 24 b1 39
       -0.00846035 -0.1260993 0.0572564 0.00033787228
0000b0 2d b5 3a be fb 5e 96 bd 2f 65 e4 bd ef ca e2 3d
       -0.18233176 -0.07342335 -0.11152112 0.11073863
0000c0 b9 6e 2d bc 16 12 30 bd 9f 66 32 3c 03 84 20 3d
       -0.01058548 -0.042985998 0.010888725 0.039188396
0000d0 e3 05 99 3d 86 fa 44 bc eb 70 e1 bc ea 53 71 bc
       0.07471826 -0.01202262 -0.027519664 -0.014729479
0000e0 f8 8a 90 bd cc 77 1a bd 9b d7 39 3d dd be 99 3c
       -0.07057756 -0.037711903 0.045371633 0.018767769
0000f0 8c 3d f9 bc 0c b2 a0 3d 42 93 58 bc c9 57 0c be
       -0.030424856 0.0784646 -0.013218703 -0.13705362
000100 4c b6 63 bc 8f c7 2c bd 67 31 c2 bd f1 4b ae 3c
       -0.013898443 -0.0421825 -0.09482079 0.021276446
000110 43 bd 32 bd 27 e1 be 3c fa b0 87 bd 3d 09 07 bd
       -0.043637525 0.02330072 -0.066255525 -0.032967795
000120 ce e2 d1 bc 7a e2 86 bd 94 18 38 be c8 54 e6 3c
       -0.025620844 -0.06586166 -0.17978126 0.028116599
000130 01 33 7d bd 9a 50 e0 bc df 90 ac bd 2d b5 48 3d
       -0.06181622 -0.027382184 -0.084260695 0.049000908
000140 e9 62 42 bd 0f 70 7d bd 31 2d c6 bc b6 37 41 bd
       -0.04745761 -0.061874446 -0.02419147 -0.04717227
000150 7e c6 41 3d e2 92 d3 3c 81 92 3e 3c a2 91 bb bd
       0.047308438 0.025826875 0.011631609 -0.09158637
000160 9a de 0c be f2 d3 5b bd a3 a9 b1 bd ab c3 27 bd
       -0.13756791 -0.053668924 -0.08674934 -0.040958088
000170 d1 b0 97 3d e5 dc a0 bd 72 c0 64 3d 0b ec 3d 3d
       0.07406772 -0.07854632 0.055847593 0.046367686
000180 5b 81 8d 3c 12 c2 8d bd b9 15 65 3d 2c 2a 30 bd
       0.017273596 -0.069217816 0.05592892 -0.04300897
000190 55 66 89 bd 71 61 17 be 66 fd ac 3d 21 27 3c 3a
       -0.067089714 -0.14783265 0.084467694 0.00071774615
0001a0 f3 83 af 3d 49 ab d6 bd a0 d7 26 3d b0 97 02 3d
       0.08570089 -0.10481889 0.04073298 0.03188294
0001b0 fb 8c 16 3b 73 db b7 3c 9c 86 4d bc 95 88 92 bd
       0.0022972215 0.022443509 -0.0125443 -0.07154957
0001c0 22 4c 15 bd 47 c6 85 3d 1d 1e 63 bd 08 e9 c6 bd
       -0.03644956 0.06531959 -0.05544864 -0.09712416
0001d0 61 4e d3 3c 4b 33 18 bd 8f 38 a9 bd 1c 7c 85 3d
       0.02579421 -0.03715829 -0.08262741 0.065178126
0001e0 8c 6c f1 bd ff f1 98 3d e4 b7 34 bd d6 87 d4 3b
       -0.11788282 0.07468032 -0.044120684 0.0064859195
0001f0 d7 73 0b be 0b 28 29 bd 65 d0 d0 bd ad 20 17 3d
       -0.13618408 -0.041297954 -0.10195998 0.036896396
000200 3e a8 e4 bb 5b 8b 0a 3d dc b8 05 bd ad bd a8 bd
       -0.006978064 0.033824306 -0.032647 -0.08239303
000210 11 fa 9e 3d f5 63 ef bc aa a8 d6 3c 6c ff a0 3d
       0.0776254 -0.029222468 0.026203472 0.07861218
000220 79 b9 41 3d ac 1d 8a bd af ff ee bd 47 16 1f bd
       0.04729602 -0.06743941 -0.116698615 -0.038839605
000230 be f7 8c 3d 29 45 0a 3d f1 e0 c0 bd 25 66 83 3c
       0.068831906 0.033757363 -0.09417904 0.016039917
000240 3f 2a ba 3c b3 79 bf 3c 72 2c 2f bc c2 b5 14 3d
       0.022725223 0.02337346 -0.010691749 0.03630615
000250 aa 2d 5d bd 8b 10 e8 3c 6b a7 c5 3c de 1c 2d bd
       -0.053998627 0.0283282 0.024127683 -0.042263858
000260 52 2f 6a 3d f8 cd 27 3c d2 99 ab bd fa bc 79 bd
       0.057174034 0.010241978 -0.08378948 -0.060971238
000270 24 78 7d 3d 5b 94 5f bd fc ff 50 bd 0f 03 4a 3d
       0.061882153 -0.054584842 -0.051025376 0.049319323
000280 7f 66 e3 3c a7 91 f6 3c 66 0d af bd b5 93 a8 3d
       0.027758835 0.03009875 -0.085474774 0.08231298
000290 7c bb 2b bc 52 1a bf 3c 65 85 8e bd 75 7f f2 bd
       -0.0104817115 0.02332798 -0.06959037 -0.11840717
0002a0 00 da c8 3c c7 74 05 bd b5 93 d6 3c 5c 76 03 be
       0.024518013 -0.03258207 0.02619348 -0.1283812
0002b0 f8 f3 4b 3d b0 da 51 bc 59 fa 60 3c 3b e9 45 bd
       0.049793214 -0.012808487 0.0137315625 -0.04831813
0002c0 6a 21 68 3d ff e4 fb bc c6 ba e2 3c f6 da 67 bd
       0.05667249 -0.030748842 0.027676951 -0.0566053
0002d0 aa 44 73 3b 65 b0 8c bd e2 1a d9 3c ad 1f 8f 3a
       0.0037119784 -0.06869582 0.026502077 0.0010919474
0002e0 1c f5 31 bc 42 88 5a bd f6 90 40 3d a5 52 49 bc
       -0.010861661 -0.0533526 0.047013246 -0.01228777
0002f0 50 57 9b bd d6 45 b1 bd 3d 0a aa bd 60 a7 62 bd
       -0.07585013 -0.08655898 -0.08302734 -0.055335402
000300 02 b6 8f 3d 8c 8e 36 bd a2 6b 20 bd c3 9b 76 bc
       0.07017137 -0.044569537 -0.039165147 -0.015051785
000310 69 3f d6 bc cd 2b 38 bd d4 fe 87 3c 3f 7f a4 bc
       -0.026153283 -0.044963647 0.016601004 -0.020080207
000320 bc 51 17 3d 53 f3 82 bc 83 a7 84 bc 85 48 58 3c
       0.036943182 -0.015985167 -0.016193157 0.013200884
000330 67 aa 47 bc b0 0f 51 bb 73 b0 b0 3c 64 0e a1 3c
       -0.012186623 -0.003190022 0.021568513 0.019660182
000340 2d 43 a1 3b 66 e3 a1 bd 93 78 8c 3c 84 05 55 3d
       0.004921338 -0.07904701 0.017147338 0.052007213
000350 85 7b 46 bd 4c 04 03 bd e3 bb d7 bd 21 ad d5 bb
       -0.04845764 -0.03198652 -0.105338834 -0.0065208827
000360 20 6d a5 bd d2 61 8d bd a2 7b 2a 3d de cc af bd
       -0.080774546 -0.06903423 0.04162181 -0.08583997
000370 66 91 8f bd 1a 93 6c 3d af 0d 2c be 90 d3 40 3d
       -0.070101544 0.057757474 -0.16802095 0.04707676
000380 3c 87 55 3d 66 3c a7 bd 61 dc ae bc bc 0e 1f 3d
       0.052130923 -0.08165817 -0.02134532 0.03883241
000390 ad 84 d5 3c f9 e1 8a 3d 64 b7 23 3c a7 25 a4 3d
       0.026064241 0.06781382 0.009992454 0.08014994
0003a0 79 2a 5b bd af dd 01 3d 8d 1f ab bc 77 68 13 bc
       -0.053507302 0.031705555 -0.020889068 -0.008997074
0003b0 9f 77 9a bd c2 a2 81 3c c6 20 c3 bd fd e7 2f bc
       -0.07542347 0.01582468 -0.095277354 -0.010736463
0003c0 22 22 dd bc 64 14 d7 3b 42 04 29 bd dd 16 1d 3d
       -0.026993815 0.00656371 -0.041263826 0.038351882
0003d0 85 8e 41 3b 7b 7e 97 bd 5a 80 3c 3c 94 65 b0 3c
       0.002953441 -0.07397171 0.011505211 0.021532811
0003e0 08 7f cd 3c 51 11 80 bb 87 8b 76 3d 1b a5 15 3d
       0.025084987 -0.0039083143 0.060191657 0.03653441
0003f0 2a c2 a7 3d 15 4f 57 bd 70 31 2b 3c a7 4c 4c bc
       0.08191331 -0.052565653 0.010448799 -0.012469447

fc2.bias f4 [84]
000000 33 a7 07 3c 98 1e a6 bd 9c f0 9c bb 9b c2 dc bf
       0.0082796095 -0.08111304 -0.004789425 -1.7246889
000010 9e 4a a3 3e 70 18 b1 bd 6f 0b 17 be 70 5a f6 bc
       0.31892866 -0.08647239 -0.14750455 -0.03007242
000020 77 f7 e9 bd a5 fd 31 3b 11 63 32 bd ab 5f 46 bd
       -0.11424153 0.002715924 -0.04355151 -0.04843108
000030 86 fe 8b bd c7 7f e5 3c 8d f3 ef 3d 85 c3 72 bf
       -0.06835656 0.02801503 0.117163755 -0.9482959
000040 95 5e be bd 4d a0 24 ba 3c 44 39 bf 83 17 b5 bc
       -0.09295384 -0.000627999 -0.7236974 -0.022105938
000050 5f 6c 58 bd a4 f5 52 be c9 2c a3 bc c0 44 b4 3c
       -0.052837726 -0.20601517 -0.019918816 0.022005439
000060 d7 78 1a bc 71 8c 13 3c f3 ee 66 bd 60 95 78 3d
       -0.0094282245 0.009005652 -0.056380223 0.06068933
000070 77 d7 37 bd ed 99 e4 3b 7a 89 56 3d 74 64 b8 bd
       -0.044883218 0.006976357 0.0523772 -0.09003535
000080 93 27 cb bd 6b 73 92 bd 93 38 a4 be 6c 0f fb bd
       -0.099196576 -0.071509205 -0.32074413 -0.12258801
000090 de 20 83 bd df 3e b2 bc 35 13 ea bd ec cd 6c bd
       -0.06402753 -0.021758495 -0.11429445 -0.05781357
0000a0 8f 30 07 bd 52 a5 b9 bd c9 18 15 be e6 04 15 be
       -0.033005293 -0.090647355 -0.14560236 -0.1455265
0000b0 cd 38 31 be 48 6b 9e 3b 7a df 29 bb ba fd b5 3d
       -0.17306824 0.0048345663 -0.0025920556 0.08886285
0000c0 74 80 13 be 70 da c0 bd 6b 72 0b bd 90 7d 03 3d
       -0.1440447 -0.09416664 -0.034044664 0.032102168
0000d0 d1 fb 83 bb 6d bc b4 be 7a 77 c2 ba ed 63 6d 3d
       -0.0040278216 -0.35300007 -0.0014836632 0.057956625
0000e0 06 ae 0b 3d 36 3a f9 bd 6f d8 4c bc 4b 09 8f 3c
       0.03410151 -0.12169306 -0.012502774 0.017460486
0000f0 11 d6 24 3f d9 68 cc 3c bd a4 c2 bd 45 a8 87 3d
       0.6438914 0.024952339 -0.095040776 0.06623892
000100 b9 65 b8 bd d4 00 8d bd b8 ec af bd ee 9e 40 3d
       -0.09003777 -0.068849236 -0.085900724 0.047026567
000110 d3 cd 3e 3c fe 18 1a bc 51 8b 70 bd 96 2a af bc
       0.011645752 -0.009405373 -0.058726612 -0.021382611
000120 70 8c 3d bd 04 49 8c 3b 40 87 28 be cc 06 3d bb
       -0.04627651 0.004281165 -0.16457844 -0.0028843163
000130 9a dc 93 bd 37 cd 8e bd 93 b4 a1 bd 9c e7 3c bd
       -0.07219811 -0.069727354 -0.0789577 -0.046119317
000140 8b cf 5a be 0b 6f ba 3c dd 9e eb bd 7d 43 1e bd
       -0.21368234 0.022758028 -0.1150491 -0.03863858

fc3.weight f4 [62, 84]
000000 d2 08 41 3d 82 c4 00 3d ac fa 5b 3d 44 07 21 be
       0.047127552 0.031437404 0.053705856 -0.15725428
000010 e0 c1 94 bd cb 2e 0e 3d 84 7c c3 bc 18 66 24 3d
       -0.07263541 0.034712594 -0.023863085 0.040136427
000020 67 58 4e bd 61 eb 97 bd c7 44 2c be 98 87 51 3d
       -0.050377276 -0.07417942 -0.16823111 0.051154703
000030 37 d8 98 bd 71 01 c1 bd 2c 67 1a bd 29 77 31 be
       -0.07463115 -0.09424103 -0.03769605 -0.17330612
000040 91 15 88 3d 60 8c 0c 3d 93 25 3f 3d 0e 93 ce 3d
       0.066447385 0.03431356 0.046666693 0.10086642
000050 be 98 a3 3d f0 1f 8f 3d fb 9f a0 bd 39 14 9a bd
       0.07988118 0.069885135 -0.07843014 -0.075233884
000060 dd 95 3d 3d 87 80 26 bd 3e 43 0e 3d de 19 68 3d
       0.0462855 -0.040649917 0.034732096 0.056665294
000070 a7 ed d1 3d 03 a0 24 be a6 dc b8 3d 17 e9 e0 bc
       0.10250407 -0.16076665 0.0902646 -0.027454896
000080 88 a6 0a bd 50 3e 0c 3d fa b9 ce bc c6 8f 02 be
       -0.033850223 0.034239113 -0.025235165 -0.12750158
000090 fb a3 84 3d a8 68 20 be fe 4b da bd d3 f3 23 3d
       0.06476589 -0.15664923 -0.106590256 0.04002745
0000a0 92 f3 99 3c d7 22 c6 3c 25 04 f0 3c 72 d1 b1 3d
       0.018792901 0.024186535 0.029298851 0.08682527
0000b0 2a 7c 52 bd 2b ed 99 bd e1 63 59 3d 5d f8 15 3e
       -0.051387943 -0.07515939 0.053073768 0.14645524
0000c0 47 ac 73 3c cd 5e 37 bd cc 94 13 bd 50 1e fc bd
       0.014872617 -0.044768143 -0.036030576 -0.12310469
0000d0 0a c7 f7 bc 95 2a 64 3a 75 48 43 3d 22 a9 69 3d
       -0.030246276 0.0008703855 0.047676522 0.057046063
0000e0 2a 4a 83 3d 07 94 08 3d f1 da 8d bd 9d 98 f3 bd
       0.0641063 0.033344295 -0.069265254 -0.11894343
0000f0 52 5e 7f 3d 24 b3 03 be 5d 5a a5 3d 62 c7 85 3d
       0.06234581 -0.12861305 0.08073876 0.0653217
000100 6b 9d 0b 3d df 3d 24 bd c9 16 ad bd 7f 55 d4 bd
       0.034085672 -0.040098067 -0.084516115 -0.103678696
000110 d0 d8 6b bd b4 d7 de bb 58 09 04 bd b4 e3 63 3c
       -0.057579815 -0.006800616 -0.032235473 0.013909269
000120 60 e9 6a 3d d7 6f 80 bd 2b b7 24 bd 73 e2 c4 be
       0.05735147 -0.06271332 -0.040213745 -0.38454017
000130 01 8b 95 3c 88 43 11 3d 38 37 3a be b2 19 d5 3d
       0.018254759 0.035464793 -0.18185127 0.104052916
000140 1b 27 b1 bd 83 94 8d 3d 2e b2 a0 3d 8a 53 b7 3d
       -0.08650037 0.06913092 0.07846485 0.08951481
000150 ca 79 aa 3d b3 93 a2 bb d0 c1 90 3d 7a cd 91 be
       0.08324011 -0.004961455 0.07068217 -0.2847708
000160 a9 fa c2 3d 13 70 c2 bc 09 05 b1 3d fb 0c c1 3d
       0.09520466 -0.023735082 0.086435385 0.09426304
000170 31 67 a1 3d 4d 82 af bd a0 e1 bd 3d 73 c3 9f 3d
       0.0788101 -0.08569775 0.0927155 0.07800951
000180 07 33 13 bc 74 0e ca 3d 40 fa ed 3c c7 01 9e 3d
       -0.008984334 0.09866038 0.029049993 0.07715183
000190 39 00 65 bd 4a 57 77 3d c7 db 0f bd 80 a9 9d bc
       -0.055908415 0.06038598 -0.035121705 -0.019245863
0001a0 3f 8d 69 bd cf be 4b bd 53 c3 d6 bd 14 9e 53 3d
       -0.05701947 -0.049742516 -0.10486474 0.051664427
0001b0 88 2f 15 bd 2a c3 82 bc f4 2d c3 3c 69 66 b1 bd
       -0.036422282 -0.015962202 0.023825623 -0.08662111
0001c0 10 b5 d2 3b cd 4e 75 3c 28 bf a2 bd e8 7c 9c bd
       0.0064302757 0.014972401 -0.079466164 -0.076410115
0001d0 09 f9 6d 3d 46 7f 3c be 50 f7 c1 3d 59 64 cc 3d
       0.058098827 -0.18407926 0.09470999 0.09980077
0001e0 bb 1d b5 bd 25 6c 8e bc d7 95 04 bd 58 11 01 3e
       -0.08843561 -0.017385552 -0.03236946 0.12604272
0001f0 64 3a 86 bd 91 13 40 3d 6f 23 69 bd 04 fa cf bd
       -0.06554106 0.04689366 -0.056918558 -0.101551086
000200 36 9e bd bd d9 8d 58 3d 29 bc 4b bd 92 74 20 3d
       -0.09258692 0.05286965 -0.04973999 0.03917367
000210 50 72 8c bc d4 73 b6 3d 51 f2 1a bd 9e b5 0c bd
       -0.017144352 0.08908811 -0.037828747 -0.03435289
000220 d3 32 7b 3d 44 23 1e be 62 67 c4 3d 55 56 60 bd
       0.061327767 -0.1544314 0.09590031 -0.054769833
000230 c0 af 77 3d 59 da b7 bd 69 05 f9 bb 0f 6e 06 bd
       0.060470343 -0.089771934 -0.007599522 -0.032819804
000240 0c 75 07 3e 54 51 86 3d 5a 80 93 3d c0 54 7d 3d
       0.13228244 0.06558481 0.072022155 0.061848402
000250 cf b2 3a 3c 42 c7 b8 3d 3a a5 ca 3d fc 6b 8d 3d
       0.01139517 0.090223804 0.09894796 0.06905362
000260 f6 75 cc bd 0a cd 53 3d 78 36 97 3c 2d dc ad 3b
       -0.09983437 0.051709212 0.01845859 0.005305788
000270 93 81 76 3d 5a 60 75 bd 27 b0 78 bd d7 ce 10 3e
       0.060182165 -0.05990634 -0.060714867 0.14141403
000280 b6 10 06 be fd f8 2c 3d 2f bc 85 bd 3d 37 cb bd
       -0.13092312 0.04222964 -0.06530034 -0.09922645
000290 e7 a7 03 3d e5 64 95 3d 27 c9 91 3b 48 a7 07 3d
       0.032142546 0.07294635 0.004449028 0.033118516
0002a0 ee c4 3c 3d f0 8a 4f bb 78 90 b8 3c 1c a9 f2 bd
       0.046086244 -0.0031668507 0.022529826 -0.11848661
0002b0 52 40 fb 3d 6a dd ab 3d 41 46 a3 bd 08 f3 8a 3d
       0.122681275 0.08391841 -0.07972384 0.06784636
0002c0 00 a8 e3 bb a9 bc 9d bd 99 d8 43 3e 98 ce 8a 3d
       -0.0069475174 -0.07702 0.19125594 0.06777686
0002d0 f0 ac 1c bc cb f7 a4 3d 32 cc a0 3e 62 30 80 bd
       -0.009562716 0.08055075 0.3140579 -0.06259228
0002e0 3e 50 ac bd a5 7e 19 3d f4 ba 3a bd dc 31 64 3d
       -0.084137425 0.037474293 -0.04558845 0.055711612
0002f0 90 85 13 bd 88 90 cc bc dc 60 9e 3d 94 ae be 3d
       -0.036016047 -0.024971262 0.07733318 0.09310642
000300 45 6c 84 3c 05 9e cc bd 58 6e 7d 3c b5 c9 8e 3d
       0.016164908 -0.09991077 0.0154682025 0.06972066
000310 f9 ab 3a 3b b5 db 18 bb 9f f4 26 bd fc 53 19 bd
       0.0028483851 -0.0023324315 -0.040760633 -0.03743361
000320 56 00 7a 3d 14 03 9e bd fb d7 c6 bb ab 4c c0 3d
       0.061035477 -0.07715431 -0.0060682273 0.09389623
000330 11 f7 c1 3d ce 32 dc 3d 30 31 98 bd 19 cf f6 3d
       0.09470952 0.10751878 -0.07431257 0.120512195
000340 45 ee b1 bd e4 ae d3 3a 49 07 c4 3c e6 a3 85 bc
       -0.086880244 0.0016150144 0.023929255 -0.016313504
000350 98 12 a5 bc 42 96 32 3d 07 be 7b 3c 63 ac 94 3d
       -0.020150468 0.04360033 0.01536513 0.07259443
000360 5b bb b5 bd ed b1 db 3d ac 51 f3 bc a9 43 02 3d
       -0.08873626 0.10727296 -0.02970203 0.031802807
000370 d4 66 98 3d ed 67 92 bd 47 47 22 3d c5 6c ce 3d
       0.07441488 -0.071487285 0.039618757 0.1007934
000380 dc 4e cd 3d 44 e0 5b bd 9d 6b 12 3d c4 30 85 3b
       0.10024807 -0.053680673 0.03574716 0.004064651
000390 2c 31 b7 3c 43 6c 63 3d 39 9e 63 3c bc f8 28 bc
       0.022362314 0.05552317 0.013892704 -0.010313209
0003a0 12 12 9d 3d 9e e2 0c 3c e5 81 d6 bd 5d 69 c9 3d
       0.07669462 0.008598952 -0.10473994 0.098345496
0003b0 2e fa 4c 38 fa 28 58 3d 82 2e 42 3b 9c 9d 34 bc
       4.8870388e-05 0.052773453 0.0029629772 -0.011023905
0003c0 36 c6 6f 3d 6b 91 67 3e a3 12 4b 3d 4f cb b4 3e
       0.058538638 0.22614066 0.04957832 0.35311362
0003d0 7b 52 d1 3d 83 36 a9 3d 23 cc 6b bd 5c 36 52 bd
       0.1022081 0.082623504 -0.057567727 -0.051321372
0003e0 ef bb 41 bd 07 15 b8 bc 73 42 95 3d 89 50 a6 bd
       -0.047298368 -0.022470964 0.07288065 -0.081208296
0003f0 6c ff a5 3d 4b 6e 1d bd be 9d dd 3c a4 1b e5 bd
       0.081053585 -0.03843526 0.027052756 -0.11186913

fc3.bias f4 [62]
000000 cc c5 6c be 10 1b 52 3e 2e c7 74 be c4 24 6f 3f
       -0.23122329 0.20518136 -0.23904106 0.93415475
000010 85 1c ab bf d5 3f 4d be 69 51 30 be e0 cf df be
       -1.3368078 -0.20043881 -0.17218556 -0.43713284
000020 40 8c 38 bf c4 62 06 be b7 c2 33 bf 30 6d 80 bf
       -0.72089005 -0.13123614 -0.70218986 -1.0033321
000030 5a 60 63 be 0f 32 96 bf d7 67 25 3e ee 6c b8 bd
       -0.22204724 -1.1734027 0.16152893 -0.09005152
000040 00 66 c7 bf af 42 29 bd 44 5a a3 be a0 0d f3 be
       -1.5578003 -0.04132336 -0.31904805 -0.47471333
000050 37 82 f6 3d a3 dd bc 3e 3d cc 66 3e 90 7b 72 3e
       0.12036555 0.36887845 0.22538848 0.23679948
000060 42 c1 fd be 42 9d 04 be 52 2f a3 be ce 95 f2 bd
       -0.49561507 -0.12950614 -0.3187204 -0.11844979
000070 8d cd b7 bd 6f e5 60 be ec 90 8e be ee 1c 3b 3c
       -0.089747526 -0.21962522 -0.27844942 0.011420472
000080 bd 67 a1 3e 1f c2 0d be ae 76 68 be da 2a d8 3e
       0.3152446 -0.13843583 -0.22701523 0.42220193
000090 4e 3d 30 be f4 a8 28 be f7 60 72 be ab 68 d2 bd
       -0.17210886 -0.164707 -0.23669802 -0.1027387
0000a0 1f 7e c1 bf 60 be 37 bf 36 51 90 3f 4b 72 24 3f
       -1.5116614 -0.71774864 1.1274784 0.642369
0000b0 b7 e3 38 be db 25 a9 3d b5 4f 9b 3f 9c 47 3d 3e
       -0.18055616 0.082591735 1.21337 0.18484348
0000c0 55 e7 8f 3d 44 20 6b be f2 98 83 3e f0 36 3c be
       0.07026545 -0.22961527 0.25702626 -0.18380332
0000d0 d0 68 1f 3e bb 17 38 be 4f b9 3b be 70 37 10 3e
       0.15567327 -0.17977802 -0.18332408 0.14083648
0000e0 cc 5b fb 3e d6 a5 34 3b e8 48 cf be 94 b7 70 bd
       0.49093473 0.0027564666 -0.4048531 -0.058768824
0000f0 ab b8 89 3e f3 5d fb be
       0.26898703 -0.49095115

fc4.weight f4 [32, 62]
000000 44 8e fb bd 80 c2 24 bd 23 18 74 3d 2c 16 81 be
       -0.122829944 -0.040224552 0.05959333 -0.25212228
000010 26 ae 88 bd db d6 65 bd 07 70 cb 3c 02 ed a8 bd
       -0.06673841 -0.056113105 0.024833692 -0.08248331
000020 85 9c 96 bd 87 44 bc be 4b 9f 1b bc 09 02 94 bc
       -0.073540725 -0.36771032 -0.009498428 -0.018067377
000030 c7 69 60 be ba c8 38 be 5a 0a 15 bf e2 97 bc 3c
       -0.21915351 -0.18045321 -0.5821892 0.023021642
000040 b5 02 88 be 43 e1 c6 be 33 da 12 3c 2a ab e8 3c
       -0.26564565 -0.38843736 0.008963156 0.02840193
000050 93 5c dd bc 21 b9 ac bd 8c 84 17 3d 3d 3d 69 3d
       -0.027021682 -0.08433748 0.03699164 0.056943167
000060 c5 6a 1a bd 7b bd ee 3c 5a 5f 8f bd 17 69 96 bc
       -0.03769948 0.029143086 -0.07000609 -0.018360658
000070 65 90 16 3e 7f a0 d3 3d 25 05 4c 3e e6 ce 15 bf
       0.1470352 0.103333466 0.19923837 -0.58518827
000080 46 3a ce bc 6d 02 f2 3e ea 67 80 be 17 5f d6 3d
       -0.025174271 0.47267476 -0.2507928 0.10467356
000090 c4 cd a5 bd d5 c5 94 bc f8 42 de 3b 54 39 ba be
       -0.08095887 -0.01816074 0.0067828856 -0.36371863
0000a0 32 6b 75 be 72 d8 0e be 46 72 ef bd 27 2b 9a bd
       -0.23966673 -0.13949755 -0.11691718 -0.07527762
0000b0 b8 a5 5c be 48 00 6a bb 79 1c 4f 3d 17 85 d3 bd
       -0.21547592 -0.0035705734 0.050564263 -0.10328119
0000c0 e1 48 e0 3d 2e c4 21 3d af 4c 78 3d 26 d1 c7 3b
       0.109514005 0.039493732 0.060620006 0.0060979305
0000d0 a1 ec 0c be 29 c8 12 be 61 5e 18 be 49 eb 05 3e
       -0.13762142 -0.14334168 -0.14879753 0.13078035
0000e0 13 1a 0e bd 4b 7a 87 3e 42 71 02 be 18 c5 de 3d
       -0.034692835 0.2646049 -0.12738517 0.108774364
0000f0 0d 84 ef bd ef 6b a0 3d d1 ff 67 3d a1 b8 d2 3c
       -0.116951086 0.07833087 0.05664045 0.025722804
000100 45 d6 f4 bd e6 5b 2c be 7a 11 a8 3d 97 a1 92 3c
       -0.11954931 -0.16831931 0.082064584 0.017899318
000110 c9 5d ab 3c 6e b4 e3 bd 77 9d 2f bb f8 51 a3 3d
       0.020918744 -0.111183986 -0.0026796737 0.07974619
000120 88 1b e8 bd da 48 03 bc 1b 62 62 3e 4f 7e 9d bd
       -0.11333376 -0.008012975 0.22107737 -0.07690107
000130 90 79 4a bd 81 44 ff 3d 24 b2 1f be 49 17 c1 be
       -0.049432337 0.12464238 -0.15595299 -0.37713078
000140 fb 3e b6 bd f0 fc 1b bd a0 11 18 be f2 49 c1 bd
       -0.08898731 -0.038083017 -0.14850473 -0.09437932
000150 33 58 6a 3c 91 7e ab bc 40 e9 a6 3d 15 9f 6d 3d
       0.014303255 -0.020934375 0.08149958 0.05801304
000160 86 54 e5 bd 26 32 74 bd 3a 4a 41 bd 7e f7 ea bc
       -0.11197762 -0.059618138 -0.04718993 -0.028682467
000170 66 b9 f4 bd df 08 1a be ec 27 97 bb 45 42 8b be
       -0.119494244 -0.15042447 -0.0046129134 -0.27198997
000180 44 28 43 3e 5c 99 00 3e 72 4f b4 bc f8 ef 09 bd
       0.19058329 0.12558502 -0.022010539 -0.033676118
000190 23 ec 25 3d 6d 8f 4e bd 18 65 2f bd 9a 5c 22 be
       0.0405084 -0.05042975 -0.04282102 -0.15855637
0001a0 43 ce ba bd 26 64 c4 bb 59 d3 82 be 12 a0 46 be
       -0.091213726 -0.005993384 -0.2555187 -0.19397
0001b0 48 15 a7 be 71 1b 35 bd 10 37 dd bd 34 59 ca bd
       -0.32633424 -0.044215623 -0.10801518 -0.098802954
0001c0 ac 22 42 bb 40 5c db 3d f2 9a e7 3d 6b b5 10 bd
       -0.0029622717 0.10710955 0.1130885 -0.035329264
0001d0 f8 61 95 be f0 d0 b0 bd 38 17 37 3d 6c 79 01 be
       -0.29176307 -0.08633602 0.044699878 -0.12643975
0001e0 16 48 70 bd 57 22 9f 3c 1d f9 20 bd 5c 4b 89 3d
       -0.058662497 0.019425554 -0.039300073 0.06703827
0001f0 e3 e9 83 bd d4 10 85 3c 30 2f c6 3c 0f b7 28 be
       -0.06441095 0.016243376 0.024192423 -0.16476081
000200 e3 c1 13 3c dd f5 8e 3d a0 f0 90 3e df 10 e2 3c
       0.009018394 0.069804884 0.28308582 0.027595935
000210 3d 24 6e 3d c2 3a 9a 3e 12 c5 bb bd e1 9e a5 bd
       0.05814003 0.30122954 -0.091684476 -0.08086944
000220 66 c0 a4 3c 47 47 05 be c2 ec 88 3f 5a 3f 8a bd
       0.020111274 -0.13015471 1.0697253 -0.067503646
000230 dd 26 19 bd 03 c4 59 3e 6e 86 8f 3d f7 d3 72 3d
       -0.03739058 0.21266179 0.07008062 0.059284177
000240 8c 36 9e bc a6 54 62 3d d8 d9 e9 bd ce 53 fc 3d
       -0.01931312 0.05525651 -0.114185035 0.12320672
000250 59 b7 de bd 33 8a 93 3d b8 a8 e1 bd 7e 83 2a 3c
       -0.108748145 0.07204094 -0.11018509 0.010407327
000260 a1 98 f1 3d 2a df 02 3e 2a fa c3 3d 7b 6b 4c 3e
       0.1179669 0.12780443 0.095691994 0.19962876
000270 2a be d4 be d3 d5 6d 3e be 13 a7 3c 62 43 2a be
       -0.41551334 0.23226099 0.020395156 -0.16627267
000280 7f 2d 4d 3e 6a df a5 bd 81 7e fd bc ed 52 eb 3e
       0.20036887 -0.080992535 -0.03094411 0.45961705
000290 38 bd 22 3d 63 0e 7d bd 84 e2 e2 bd 5a 71 57 bd
       0.039731234 -0.0617813 -0.11078361 -0.052598335
0002a0 a7 03 c6 3d a5 2f 14 bd 36 70 3e be 5e 5d 20 bd
       0.096686654 -0.03617825 -0.18597493 -0.039151542
0002b0 26 36 27 be 3b 2c 68 3e ba 0e c9 bc 88 65 85 bb
       -0.1632925 0.22673123 -0.024543155 -0.0040709414
0002c0 87 a5 6a bd 2e 58 0a 3f d9 6d 3f 3b 96 60 11 3e
       -0.057286765 0.540408 0.0029209761 0.14197001
0002d0 67 34 ba be 9f e4 cf bd 39 75 ff bd 26 a7 50 bd
       -0.36368105 -0.10151028 -0.1247353 -0.050940655
0002e0 76 ed 22 3d 2c 76 52 3d e4 a2 9a 3c b1 f9 fd b9
       0.03977724 0.05138223 0.0188765 -0.00048441955
0002f0 0f 38 86 3e 46 02 78 bd 2b 4c 29 bd 45 e2 0e 3d
       0.26214644 -0.060549043 -0.041332405 0.034883756
000300 89 c5 cc ba 51 71 9b 3d 47 2f 51 3d e3 b8 52 be
       -0.0015622835 0.07589973 0.051070478 -0.20578341
000310 af df 56 3d 3f e3 03 3e 2a 3a 8b bd 3d 64 d4 bc
       0.052459415 0.12879656 -0.06798203 -0.025926704
000320 05 ee 24 3e 5a 75 60 3d 96 b4 bb 3d 83 a9 a8 3d
       0.16106422 0.054799415 0.091653034 0.08235457
000330 50 c3 98 bd 38 d4 1b 3d e8 c6 3b bd f4 e5 fc bd
       -0.07459128 0.038044184 -0.04584399 -0.123485476
000340 a5 7b 82 3d e7 cc 1d be 28 11 53 bd a1 cd 49 3d
       0.063712396 -0.15410195 -0.051530033 0.04926837
000350 c1 96 83 3d fb d7 b7 bd a8 92 17 bc 9e 3b 09 be
       0.064252384 -0.08976742 -0.009251274 -0.13401648
000360 ff c4 c6 bc 22 42 aa 3c c9 29 99 3b 78 8f 3a be
       -0.024263857 0.020783488 0.0046741706 -0.18218791
000370 32 e3 55 bd cc 15 f1 bd 8a 92 b2 bd ac 15 0d be
       -0.052218623 -0.117717355 -0.08719356 -0.13777798
000380 2d 72 3e bd 24 de 15 3e 2c 24 3a 3e 8a 4e 79 3d
       -0.046495605 0.14635521 0.18177861 0.060865916
000390 7a df 11 3d 4a e9 09 3e 36 73 e9 3d 19 40 12 3e
       0.035613514 0.13467899 0.11398928 0.14282264
0003a0 66 03 17 bd c9 7e d2 bd 70 dd 1c 3b 5d db 08 be
       -0.036868475 -0.102780886 0.0023935698 -0.1336493
0003b0 ce 04 2e be b0 ff d6 3c b7 f7 a6 3d 7c d3 b5 bd
       -0.1699402 0.026244968 0.081527166 -0.08878228
0003c0 36 db f1 3d 60 c4 b8 bd 47 00 55 3e fb ef 12 be
       0.11809389 -0.090218306 0.20800887 -0.14349358
0003d0 03 c3 02 bd 67 6b 71 bd 0a 75 77 bc 1e 0b 0f 3d
       -0.03192426 -0.058940317 -0.015103588 0.03492271
0003e0 db 06 17 be a0 18 9e bd 12 76 e6 bb 18 87 02 3e
       -0.14748709 -0.077195406 -0.007033118 0.12746847
0003f0 5c 08 53 bd a5 03 ba bd 0c b1 a5 be 18 97 04 bc
       -0.051521644 -0.090827264 -0.3236164 -0.008092664

fc4.bias f4 [32]
000000 cd 0c 95 3e 70 ea f6 bd fe 3f 7b 3e 2d b1 88 bf
       0.2911133 -0.12056434 0.2453613 -1.067907
000010 2b 00 97 be c9 3d c8 bd d1 16 98 3f 47 54 b8 3e
       -0.29492316 -0.097774096 1.1881963 0.360018
000020 44 36 6f bf 10 9c 42 3f cd e2 84 bf 2c c9 9c 3f
       -0.9344218 0.7601938 -1.0381714 1.2248893
000030 01 7b 87 3f 1e be 58 3f 10 c1 36 3e 71 c1 09 3f
       1.0584413 0.84665096 0.17847085 0.53810793
000040 b7 9e b9 3e a5 f9 74 3f d9 23 6b 3f df 4e b7 3e
       0.36253902 0.9569343 0.91851574 0.3580236
000050 4d a5 7a bf bd a2 93 3f 4c 58 81 bf 68 de 96 bd
       -0.9790848 1.1534039 -1.0105071 -0.073666394
000060 5d 7a 7f 3f fb c4 35 be a6 2b 86 be 1b bb a4 be
       0.99796087 -0.17750923 -0.26205176 -0.32174
000070 c2 4b 81 3f c4 3b 83 bf 22 41 2e 3f bf 45 84 be
       1.0101244 -1.0252614 0.68068135 -0.25834462

fc5.weight f4 [2, 32]
000000 c8 71 61 3d f8 6a 8a bb d2 e2 5f 3e b5 dd 9a be
       0.05504015 -0.0042241774 0.21863869 -0.30247274
000010 00 8b ab 3b 44 a8 3d 3b 6e 45 0a 3f 45 be 18 be
       0.005235076 0.0028939405 0.5401219 -0.14916332
000020 38 f5 b2 be 65 51 84 3e 59 3b 48 be 67 3a 70 3e
       -0.34952712 0.2584335 -0.1955389 0.23459779
000030 31 1b 95 3e 0f 9c 4a 3e 4d e5 ff 3c 10 1a 91 be
       0.29122308 0.19786094 0.031237269 -0.28340197
000040 85 a9 86 be 11 a6 6e 3e b1 35 0d 3e b4 04 c5 be
       -0.26301208 0.23305537 0.13790013 -0.3848015
000050 85 b5 4e be 66 6b ae 3e 73 5a 50 be d5 51 b8 3b
       -0.20186432 0.34066314 -0.20347004 0.0056249895
000060 9a 40 25 3d 96 51 28 bd 2e 5f e5 bd db 24 87 bd
       0.040344812 -0.04109343 -0.11199795 -0.065988265
000070 f8 35 7e 3e 57 7f 71 be be e6 ce 3e 9d be 4d 3e
       0.24825275 -0.23583733 0.40410417 0.20092244
000080 e1 3f dc 3c 90 19 5e bc 7c a3 f5 bd d5 bd d4 3e
       0.026885929 -0.013555899 -0.11994073 0.4155108
000090 ea bc 43 bd f8 b2 82 bb fb da cc be 0d 68 a5 3c
       -0.047787584 -0.00398862 -0.4001082 0.020191217
0000a0 49 13 b0 3e 92 78 72 be aa 3b ba 3e 87 42 d4 be
       0.34389713 -0.23678806 0.36373645 -0.41457006
0000b0 01 e5 8d be 8a c6 0b be 8f 95 5c bd e2 ab 0a 3e
       -0.2771378 -0.13649955 -0.053853568 0.1354213
0000c0 3f b2 52 3c 05 a2 1f bd 5e 1f 78 bc 3c 7b 85 3e
       0.01285988 -0.038972873 -0.015144197 0.26070583
0000d0 65 4b ba 3e 73 43 cf be 47 ee b0 3e dc 76 03 bd
       0.36385646 -0.40481147 0.3455679 -0.032095775
0000e0 4c 24 88 be 35 61 b1 3c 0c ea 89 bd 7d f8 cb bd
       -0.26590192 0.021652797 -0.06734094 -0.09959505
0000f0 41 a1 8b be 5c bd ed 3e 5d 5b 74 be 6a b0 06 be
       -0.27271464 0.46433532 -0.23862977 -0.13153234

fc5.bias f4 [2]
000000 42 05 53 3f 6d 33 30 bf
       0.824299 -0.6882847
